==========================================
SLURM_JOB_ID = 150916
SLURM_NODELIST = gpu[10-12,22]
==========================================
Node IP: 10.151.0.10
distributed
Rank: 0
World size: 4
Available devices: 1
Current cuda device: 0
Reducer: <gradient_reducers.ThreshReducer object at 0x2b45c7ffead0>
Current cuda device after: 0
NeuMF(
  (mf_user_embed): Embedding(138493, 64)
  (mf_item_embed): Embedding(26744, 64)
  (mlp_user_embed): Embedding(138493, 128)
  (mlp_item_embed): Embedding(26744, 128)
  (mlp): ModuleList(
    (0): Linear(in_features=256, out_features=256, bias=True)
    (1): Linear(in_features=256, out_features=128, bias=True)
    (2): Linear(in_features=128, out_features=64, bias=True)
  )
  (final): Linear(in_features=128, out_features=1, bias=True)
)
31832577 parameters
[Iteration 0] [Rank 0] , d = 0.0001299297885936159, m = 0.0001299297885936159
[Iteration 10] [Rank 0] , d = 0.0013029105372147534, m = 0.0005397672270825519
[Iteration 20] [Rank 0] , d = 0.003746853420004293, m = 0.001765249121094675
[Iteration 30] [Rank 0] , d = 0.006185832834080634, m = 0.0026558712417926967
[Iteration 40] [Rank 0] , d = 0.006720128251005252, m = 0.003501390047456194
…
[Epoch 4] [Rank 0] {'best_epoch_stats/best_train_throughput': 18065987.644683953, 'best_epoch_stats/best_eval_throughput': 112829013.56406952, 'best_epoch_stats/mean_train_throughput': 17586452.121973496, 'best_epoch_stats/mean_eval_throughput': 112698043.98320189, 'best_epoch_stats/best_accuracy': 0.8646213166008391, 'best_epoch_stats/best_epoch': 4, 'best_epoch_stats/time_to_target': 30.850216150283813, 'best_epoch_stats/time_to_best_model': 30.8500497341156}
[Iteration 470] [Rank 0] , d = 0.005772451284732618, m = 0.005342438200072521
distributed
Rank: 1
World size: 4
Available devices: 1
Current cuda device: 0
Reducer: <gradient_reducers.ThreshReducer object at 0x2b497336f650>
Current cuda device after: 0
NeuMF(
  (mf_user_embed): Embedding(138493, 64)
  (mf_item_embed): Embedding(26744, 64)
  (mlp_user_embed): Embedding(138493, 128)
  (mlp_item_embed): Embedding(26744, 128)
  (mlp): ModuleList(
    (0): Linear(in_features=256, out_features=256, bias=True)
    (1): Linear(in_features=256, out_features=128, bias=True)
    (2): Linear(in_features=128, out_features=64, bias=True)
  )
  (final): Linear(in_features=128, out_features=1, bias=True)
)
31832577 parameters
[Iteration 0] [Rank 1] , d = 0.00021248672389923066, m = 0.00021248672389923066
[Iteration 10] [Rank 1] , d = 0.0003937789893667735, m = 0.0003359651455060131
[Iteration 20] [Rank 1] , d = 0.00041837643242015874, m = 0.000375983502985756
[Iteration 30] [Rank 1] , d = 0.001580582055923402, m = 0.0006916144730519911
distributed
Rank: 2
World size: 4
Available devices: 1
Current cuda device: 0
Reducer: <gradient_reducers.ThreshReducer object at 0x2b21643c7ad0>
Current cuda device after: 0
NeuMF(
  (mf_user_embed): Embedding(138493, 64)
  (mf_item_embed): Embedding(26744, 64)
  (mlp_user_embed): Embedding(138493, 128)
  (mlp_item_embed): Embedding(26744, 128)
  (mlp): ModuleList(
    (0): Linear(in_features=256, out_features=256, bias=True)
    (1): Linear(in_features=256, out_features=128, bias=True)
    (2): Linear(in_features=128, out_features=64, bias=True)
  )
  (final): Linear(in_features=128, out_features=1, bias=True)
)
31832577 parameters
[Iteration 0] [Rank 2] , d = 0.00021258096697606354, m = 0.00021258096697606354
[Iteration 10] [Rank 2] , d = 0.0003944386909046038, m = 0.00033598228061089175
[Iteration 20] [Rank 2] , d = 0.0004167743001139996, m = 0.00037602239695397284
[Iteration 30] [Rank 2] , d = 0.0015622988990178206, m = 0.0006899454585622732
[Iteration 40] [Rank 1] , d = 0.0019462766083939733, m = 0.0010588393571105996
…
